Neural Network Tools for STM32AI v1.6.0 (STM.ai v7.2.0-RC5)
Created date          : 2022-09-29 23:08:15
Parameters            : generate --name network -m C:/Users/ggurt/Desktop/project/contest/submission/model_best_ds_max5_9674_3.h5 --type keras --compression none --verbosity 1 --workspace C:\Users\ggurt\AppData\Local\Temp\mxAI_workspace86197393450005402147617651997130 --output C:\Users\ggurt\.stm32cubemx\network_output --allocate-inputs --allocate-outputs

Exec/report summary (generate)
------------------------------------------------------------------------------------------------------------------------
model file            : C:\Users\ggurt\Desktop\project\contest\submission\model_best_ds_max5_9674_3.h5
type                  : keras
c_name                : network
compression           : none
allocator strategy    : ['allocate-inputs', 'allocate-outputs']
workspace dir         : C:\Users\ggurt\AppData\Local\Temp\mxAI_workspace86197393450005402147617651997130
output dir            : C:\Users\ggurt\.stm32cubemx\network_output
model_name            : model_best_ds_max5_9674_3
model_hash            : 8cbd7750d94f5f74b341a2700e502cb2
input 1/1             : 'input_4'
                        1250 items, 4.88 KiB, ai_float, float, (1,1,1250,1), domain:activations/**default**
output 1/1            : 'dense_7'
                        2 items, 8 B, ai_float, float, (1,1,1,2), domain:activations/**default**
params #              : 1,817 items (7.10 KiB)
macc                  : 10,715
weights (ro)          : 6,884 B (6.72 KiB) (1 segment) / -384(-5.3%) vs float model
activations (rw)      : 5,000 B (4.88 KiB) (1 segment) *
ram (total)           : 5,000 B (4.88 KiB) = 5,000 + 0 + 0

(*) input/output buffers can be used from the activations buffer

Model name - model_best_ds_max5_9674_3 ['input_4'] ['dense_7']
-------------------------------------------------------------------------------------------------------------------------------------------------------------------------------------------------------------
id   layer (type,original)                                    oshape                    param/size    macc    connected to                 |   c_size          c_macc            c_type                     
-------------------------------------------------------------------------------------------------------------------------------------------------------------------------------------------------------------
0    input_4 (Input, InputLayer)                              [b:None,h:1,w:1250,c:1]                                                      |                                    
-------------------------------------------------------------------------------------------------------------------------------------------------------------------------------------------------------------
1    max_pooling2d_3 (Pool, MaxPooling2D)                     [b:None,h:1,w:250,c:1]                  1,250   input_4                      |                                     pool_of32[0]               
-------------------------------------------------------------------------------------------------------------------------------------------------------------------------------------------------------------
2    conv2d_3_conv2d (Conv2D, Conv2D)                         [b:None,h:1,w:125,c:3]    21/84         2,253   max_pooling2d_3              |   -84(-100.0%)    -2,253(-100.0%)  
-------------------------------------------------------------------------------------------------------------------------------------------------------------------------------------------------------------
3    batch_normalization_15 (ScaleBias, BatchNormalization)   [b:None,h:1,w:125,c:3]    6/24          750     conv2d_3_conv2d              |   -24(-100.0%)    -750(-100.0%)    
-------------------------------------------------------------------------------------------------------------------------------------------------------------------------------------------------------------
4    activation_15 (Nonlinearity, Activation)                 [b:None,h:1,w:125,c:3]                  375     batch_normalization_15       |   +84(+100.0%)    +2,253(+600.8%)   conv2d_of32[1]             
-------------------------------------------------------------------------------------------------------------------------------------------------------------------------------------------------------------
5    depthwise_conv2d_12_conv2d (Conv2D, DepthwiseConv2D)     [b:None,h:1,w:63,c:3]     18/72         948     activation_15                |   -72(-100.0%)    -948(-100.0%)    
-------------------------------------------------------------------------------------------------------------------------------------------------------------------------------------------------------------
6    batch_normalization_16 (ScaleBias, BatchNormalization)   [b:None,h:1,w:63,c:3]     6/24          378     depthwise_conv2d_12_conv2d   |   -24(-100.0%)    -378(-100.0%)    
-------------------------------------------------------------------------------------------------------------------------------------------------------------------------------------------------------------
7    activation_16 (Nonlinearity, Activation)                 [b:None,h:1,w:63,c:3]                   189     batch_normalization_16       |   +72(+100.0%)    +948(+501.6%)     conv2d_of32[2]             
-------------------------------------------------------------------------------------------------------------------------------------------------------------------------------------------------------------
8    depthwise_conv2d_13_conv2d (Conv2D, DepthwiseConv2D)     [b:None,h:1,w:63,c:6]     30/120        1,518   activation_16                |   -120(-100.0%)   -1,518(-100.0%)  
-------------------------------------------------------------------------------------------------------------------------------------------------------------------------------------------------------------
9    batch_normalization_17 (ScaleBias, BatchNormalization)   [b:None,h:1,w:63,c:6]     12/48         756     depthwise_conv2d_13_conv2d   |   -48(-100.0%)    -756(-100.0%)    
-------------------------------------------------------------------------------------------------------------------------------------------------------------------------------------------------------------
10   activation_17 (Nonlinearity, Activation)                 [b:None,h:1,w:63,c:6]                   378     batch_normalization_17       |                   -378(-100.0%)    
-------------------------------------------------------------------------------------------------------------------------------------------------------------------------------------------------------------
11   average_pooling2d_3 (Pool, AveragePooling2D)             [b:None,h:1,w:32,c:6]                   576     activation_17                |   +120(+100.0%)   +1,896(+329.2%)   optimized_conv2d_of32[3]   
-------------------------------------------------------------------------------------------------------------------------------------------------------------------------------------------------------------
12   depthwise_conv2d_14_conv2d (Conv2D, DepthwiseConv2D)     [b:None,h:1,w:16,c:12]    60/240        780     average_pooling2d_3          |   -240(-100.0%)   -780(-100.0%)    
-------------------------------------------------------------------------------------------------------------------------------------------------------------------------------------------------------------
13   batch_normalization_18 (ScaleBias, BatchNormalization)   [b:None,h:1,w:16,c:12]    24/96         384     depthwise_conv2d_14_conv2d   |   -96(-100.0%)    -384(-100.0%)    
-------------------------------------------------------------------------------------------------------------------------------------------------------------------------------------------------------------
14   activation_18 (Nonlinearity, Activation)                 [b:None,h:1,w:16,c:12]                  192     batch_normalization_18       |   +240(+100.0%)   +780(+406.2%)     conv2d_of32[4]             
-------------------------------------------------------------------------------------------------------------------------------------------------------------------------------------------------------------
15   depthwise_conv2d_15_conv2d (Conv2D, DepthwiseConv2D)     [b:None,h:1,w:6,c:24]     120/480       600     activation_18                |   -480(-100.0%)   -600(-100.0%)    
-------------------------------------------------------------------------------------------------------------------------------------------------------------------------------------------------------------
16   batch_normalization_19 (ScaleBias, BatchNormalization)   [b:None,h:1,w:6,c:24]     48/192        288     depthwise_conv2d_15_conv2d   |   -192(-100.0%)   -288(-100.0%)    
-------------------------------------------------------------------------------------------------------------------------------------------------------------------------------------------------------------
17   activation_19 (Nonlinearity, Activation)                 [b:None,h:1,w:6,c:24]                   144     batch_normalization_19       |   +480(+100.0%)   +600(+416.7%)     conv2d_of32[5]             
-------------------------------------------------------------------------------------------------------------------------------------------------------------------------------------------------------------
19   flatten_3 (Reshape, Flatten)                             [b:None,c:144]                                  activation_19                |                                    
-------------------------------------------------------------------------------------------------------------------------------------------------------------------------------------------------------------
20   dense_6_dense (Dense, Dense)                             [b:None,c:10]             1,450/5,800   1,450   flatten_3                    |                   +10(+0.7%)        dense_of32/nl_of32[6, 7]   
     dense_6 (Nonlinearity, Dense)                            [b:None,c:10]                           10      dense_6_dense                |                   -10(-100.0%)     
-------------------------------------------------------------------------------------------------------------------------------------------------------------------------------------------------------------
21   dense_7_dense (Dense, Dense)                             [b:None,c:2]              22/88         22      dense_6                      |                   +30(+136.4%)      dense_of32/nl_of32[o][8, 9]
     dense_7 (Nonlinearity, Dense)                            [b:None,c:2]                            30      dense_7_dense                |                   -30(-100.0%)     
-------------------------------------------------------------------------------------------------------------------------------------------------------------------------------------------------------------
model/c-model: macc=13,271/10,715 -2,556(-19.3%) weights=7,268/6,884 -384(-5.3%) activations=--/5,000 io=--/0



Generated C-graph summary
------------------------------------------------------------------------------------------------------------------------
model name            : model_best_ds_max5_9674_3
c-name                : network
c-node #              : 10
c-array #             : 26
activations size      : 5000 (1 segments)
weights size          : 6884 (1 segments)
macc                  : 10715
inputs                : ['input_4_output']
outputs               : ['dense_7_output']

C-Arrays (26)
-----------------------------------------------------------------------------------------------------------------
c_id   name (*_array)                        item/size   domain/mem-pool           c-type        fmt     comment
-----------------------------------------------------------------------------------------------------------------
0      input_4_output                        1250/5000   activations/**default**   float         float   /input 
1      max_pooling2d_3_output                250/1000    activations/**default**   float         float          
2      conv2d_3_conv2d_output                375/1500    activations/**default**   float         float          
3      depthwise_conv2d_12_conv2d_output     189/756     activations/**default**   float         float          
4      depthwise_conv2d_13_conv2d_output     192/768     activations/**default**   float         float          
5      depthwise_conv2d_14_conv2d_output     192/768     activations/**default**   float         float          
6      depthwise_conv2d_15_conv2d_output     144/576     activations/**default**   float         float          
7      dense_6_dense_output                  10/40       activations/**default**   float         float          
8      dense_6_output                        10/40       activations/**default**   float         float          
9      dense_7_dense_output                  2/8         activations/**default**   float         float          
10     dense_7_output                        2/8         activations/**default**   float         float   /output
11     conv2d_3_conv2d_weights               18/72       weights/weights           const float   float          
12     conv2d_3_conv2d_bias                  3/12        weights/weights           const float   float          
13     depthwise_conv2d_12_conv2d_weights    15/60       weights/weights           const float   float          
14     depthwise_conv2d_12_conv2d_bias       3/12        weights/weights           const float   float          
15     depthwise_conv2d_13_conv2d_weights    24/96       weights/weights           const float   float          
16     depthwise_conv2d_13_conv2d_bias       6/24        weights/weights           const float   float          
17     depthwise_conv2d_14_conv2d_weights    48/192      weights/weights           const float   float          
18     depthwise_conv2d_14_conv2d_bias       12/48       weights/weights           const float   float          
19     depthwise_conv2d_15_conv2d_weights    96/384      weights/weights           const float   float          
20     depthwise_conv2d_15_conv2d_bias       24/96       weights/weights           const float   float          
21     dense_6_dense_weights                 1440/5760   weights/weights           const float   float          
22     dense_6_dense_bias                    10/40       weights/weights           const float   float          
23     dense_7_dense_weights                 20/80       weights/weights           const float   float          
24     dense_7_dense_bias                    2/8         weights/weights           const float   float          
25     depthwise_conv2d_13_conv2d_scratch0   378/1512    activations/**default**   float         float          
-----------------------------------------------------------------------------------------------------------------

C-Layers (10)
--------------------------------------------------------------------------------------------------------------------------------------
c_id   name (*_layer)               id   layer_type          macc   rom    tensors                                  shape (array id) 
--------------------------------------------------------------------------------------------------------------------------------------
0      max_pooling2d_3              1    pool                1250   0      I: input_4_output                        (1,1,1250,1) (0) 
                                                                           O: max_pooling2d_3_output                (1,1,250,1) (1)  
--------------------------------------------------------------------------------------------------------------------------------------
1      conv2d_3_conv2d              4    conv2d              2628   84     I: max_pooling2d_3_output                (1,1,250,1) (1)  
                                                                           W: conv2d_3_conv2d_weights               (1,3,1,6) (11)   
                                                                           W: conv2d_3_conv2d_bias                  (1,1,1,3) (12)   
                                                                           O: conv2d_3_conv2d_output                (1,1,125,3) (2)  
--------------------------------------------------------------------------------------------------------------------------------------
2      depthwise_conv2d_12_conv2d   7    conv2d              1137   72     I: conv2d_3_conv2d_output                (1,1,125,3) (2)  
                                                                           W: depthwise_conv2d_12_conv2d_weights    (1,3,1,5) (13)   
                                                                           W: depthwise_conv2d_12_conv2d_bias       (1,1,1,3) (14)   
                                                                           O: depthwise_conv2d_12_conv2d_output     (1,1,63,3) (3)   
--------------------------------------------------------------------------------------------------------------------------------------
3      depthwise_conv2d_13_conv2d   11   optimized_conv2d    2472   120    I: depthwise_conv2d_12_conv2d_output     (1,1,63,3) (3)   
                                                                           S: depthwise_conv2d_13_conv2d_scratch0                    
                                                                           W: depthwise_conv2d_13_conv2d_weights    (1,6,1,4) (15)   
                                                                           W: depthwise_conv2d_13_conv2d_bias       (1,1,1,6) (16)   
                                                                           O: depthwise_conv2d_13_conv2d_output     (1,1,32,6) (4)   
--------------------------------------------------------------------------------------------------------------------------------------
4      depthwise_conv2d_14_conv2d   14   conv2d              972    240    I: depthwise_conv2d_13_conv2d_output     (1,1,32,6) (4)   
                                                                           W: depthwise_conv2d_14_conv2d_weights    (1,12,1,4) (17)  
                                                                           W: depthwise_conv2d_14_conv2d_bias       (1,1,1,12) (18)  
                                                                           O: depthwise_conv2d_14_conv2d_output     (1,1,16,12) (5)  
--------------------------------------------------------------------------------------------------------------------------------------
5      depthwise_conv2d_15_conv2d   17   conv2d              744    480    I: depthwise_conv2d_14_conv2d_output     (1,1,16,12) (5)  
                                                                           W: depthwise_conv2d_15_conv2d_weights    (1,24,1,4) (19)  
                                                                           W: depthwise_conv2d_15_conv2d_bias       (1,1,1,24) (20)  
                                                                           O: depthwise_conv2d_15_conv2d_output     (1,1,6,24) (6)   
--------------------------------------------------------------------------------------------------------------------------------------
6      dense_6_dense                20   dense               1450   5800   I: depthwise_conv2d_15_conv2d_output0    (1,1,1,144) (6)  
                                                                           W: dense_6_dense_weights                 (144,1,1,10) (21)
                                                                           W: dense_6_dense_bias                    (1,1,1,10) (22)  
                                                                           O: dense_6_dense_output                  (1,1,1,10) (7)   
--------------------------------------------------------------------------------------------------------------------------------------
7      dense_6                      20   nl                  10     0      I: dense_6_dense_output                  (1,1,1,10) (7)   
                                                                           O: dense_6_output                        (1,1,1,10) (8)   
--------------------------------------------------------------------------------------------------------------------------------------
8      dense_7_dense                21   dense               22     88     I: dense_6_output                        (1,1,1,10) (8)   
                                                                           W: dense_7_dense_weights                 (10,1,1,2) (23)  
                                                                           W: dense_7_dense_bias                    (1,1,1,2) (24)   
                                                                           O: dense_7_dense_output                  (1,1,1,2) (9)    
--------------------------------------------------------------------------------------------------------------------------------------
9      dense_7                      21   nl                  30     0      I: dense_7_dense_output                  (1,1,1,2) (9)    
                                                                           O: dense_7_output                        (1,1,1,2) (10)   
--------------------------------------------------------------------------------------------------------------------------------------



Number of operations per c-layer
------------------------------------------------------------------------------------------------------------------------
c_id    m_id   name (type)                                     #op (type)                       #param (sparsity)      
------------------------------------------------------------------------------------------------------------------------
0       1      max_pooling2d_3 (pool)                                    1,250 (op_f32_f32)                            
1       4      conv2d_3_conv2d (conv2d)                                  2,628 (smul_f32_f32)               21 (0.0000)
2       7      depthwise_conv2d_12_conv2d (conv2d)                       1,137 (smul_f32_f32)               18 (0.0000)
3       11     depthwise_conv2d_13_conv2d (optimized_conv2d)             2,472 (smul_f32_f32)               30 (0.0000)
4       14     depthwise_conv2d_14_conv2d (conv2d)                         972 (smul_f32_f32)               60 (0.0000)
5       17     depthwise_conv2d_15_conv2d (conv2d)                         744 (smul_f32_f32)              120 (0.0000)
6       20     dense_6_dense (dense)                                     1,450 (smul_f32_f32)            1,450 (0.0000)
7       20     dense_6 (nl)                                                 10 (op_f32_f32)                            
8       21     dense_7_dense (dense)                                        22 (smul_f32_f32)               22 (0.0000)
9       21     dense_7 (nl)                                                 30 (op_f32_f32)                            
------------------------------------------------------------------------------------------------------------------------
total                                                                   10,715                           1,721 (0.0000)

  Number of operation types
  ---------------------------------------------
  op_f32_f32                 1,290       12.0%
  smul_f32_f32               9,425       88.0%

Complexity report (model)
----------------------------------------------------------------------------------------
m_id   name                  c_macc                    c_rom                     c_id  
----------------------------------------------------------------------------------------
1      max_pooling2d_3       ||||||||          11.7%   |                  0.0%   [0]   
4      activation_15         ||||||||||||||||  24.5%   |                  1.2%   [1]   
7      activation_16         |||||||           10.6%   |                  1.0%   [2]   
11     average_pooling2d_3   |||||||||||||||   23.1%   |                  1.7%   [3]   
14     activation_18         ||||||             9.1%   |                  3.5%   [4]   
17     activation_19         |||||              6.9%   ||                 7.0%   [5]   
20     dense_6_dense         |||||||||         13.6%   ||||||||||||||||  84.3%   [6, 7]
21     dense_7_dense         |                  0.5%   |                  1.3%   [8, 9]
----------------------------------------------------------------------------------------
macc=10,715 weights=6,884 act=5,000 ram_io=0

Generated files (7)
--------------------------------------------------------------------------
C:\Users\ggurt\.stm32cubemx\network_output\network_config.h
C:\Users\ggurt\.stm32cubemx\network_output\network.h
C:\Users\ggurt\.stm32cubemx\network_output\network.c
C:\Users\ggurt\.stm32cubemx\network_output\network_data_params.h
C:\Users\ggurt\.stm32cubemx\network_output\network_data_params.c
C:\Users\ggurt\.stm32cubemx\network_output\network_data.h
C:\Users\ggurt\.stm32cubemx\network_output\network_data.c
